app/src/main/assets/course_recommendation_model.tflite (tflite, 182908 bytes, 12 tensors)

arith.constant f4 [8, 16]
000000 67 89 47 bd 43 ac 11 be 26 73 98 3d cb 15 12 3f
       -0.04871502 -0.14225869 0.07443838 0.57064503
000010 95 30 3a bf 2a 63 ae 3e 88 a0 84 be e8 c2 99 3e
       -0.7273038 0.3406003 -0.25903726 0.30031514
000020 5d ec b7 3e 3f da df bf 4f 81 b0 3e 10 29 df be
       0.35922518 -1.7488478 0.34473655 -0.43586016
000030 93 8f e4 be 5d d9 ab 3e 9c e5 84 be 1b 4f 98 3e
       -0.44640788 0.33564273 -0.25956428 0.29747853
000040 67 7e 8d be 07 d9 e3 3e 75 31 e2 3e 97 0c 14 be
       -0.276355 0.44501516 0.44178358 -0.14457928
000050 a2 5c b8 be eb 1f d6 be 41 83 9e be ab 54 f2 be
       -0.36008173 -0.41821226 -0.30959514 -0.47330222
000060 3b 27 fa be fb 52 29 be e7 1c 62 3e 90 75 95 3d
       -0.48858055 -0.16535561 0.22081338 0.07297814
000070 7e 73 37 3f 34 bb 53 bf 0a 48 84 3e 5a 2d e5 3e
       0.716606 -0.82707524 0.2583621 0.44761163
000080 c6 c5 e3 3e ae 8f cb 3e 93 48 6c 3e 64 c4 c5 3e
       0.44486827 0.39758056 0.2307456 0.38626397
000090 37 fe 14 3e 22 da a7 3e 2c f5 be be 70 10 93 be
       0.145501 0.3278361 -0.37296426 -0.28723478
0000a0 8f a9 84 3e be 65 2a bd 53 6a db be 74 93 f9 3e
       0.25910613 -0.041600935 -0.42854556 0.4874531
0000b0 8e e0 87 3e ea ad 49 3e 62 e2 98 3e 8a 03 38 be
       0.2653851 0.19695249 0.29860216 -0.179701
0000c0 f5 cc f0 3e ec ec 17 3e f2 e2 41 be 9a d3 9c bf
       0.4703137 0.14836472 -0.18934229 -1.2252076
0000d0 4e 79 01 bf 9e 7f 9b 3e 80 d1 1b 3f b9 1b f8 3e
       -0.5057572 0.30370802 0.60866547 0.4845865
0000e0 0e 51 d9 3e 58 b0 0e 3f ac 8b f5 be 90 28 8f be
       0.42444652 0.5573783 -0.47958124 -0.27960634
0000f0 61 07 b3 be 9f 5a 22 bf 7f 9b de 3e 00 b8 5e bf
       -0.34966567 -0.63419527 0.4347801 -0.8699951
000100 1b 5e c8 be d3 18 04 3f ab a1 f2 bd 7d d0 a2 3d
       -0.39134297 0.5160038 -0.11847242 0.07949922
000110 c3 50 21 bf f2 2d ea 3e ba 28 a5 3d 27 0d 8e 3e
       -0.6301386 0.45738178 0.080644086 0.2774441
000120 92 db ea 3e c0 0d cf bf 6c 1b d8 be ec 47 e7 3e
       0.45870644 -1.6176071 -0.4220842 0.4517206
000130 4d a5 8b 3d f9 85 9c 3d a8 7e ab 3e 93 c4 32 3f
       0.06818638 0.07642741 0.3349507 0.698312
000140 89 56 b0 3d 2e 34 c6 be 58 6d a6 bc d2 04 5b be
       0.08610255 -0.38711685 -0.020315811 -0.21388558
000150 7b 08 9c bd 56 41 3a be f9 78 af be 82 09 95 be
       -0.07618805 -0.18188986 -0.34271982 -0.29108816
000160 35 54 98 be b4 39 f3 3e 4f 26 9c 3e 78 a4 71 3e
       -0.29751745 0.47504961 0.30497977 0.23597896
000170 e2 f2 38 bf 46 af 8e 3e 4d 98 a2 be f4 86 42 3e
       -0.7224561 0.27868098 -0.3175682 0.18996793
000180 18 dd a5 3e 26 0d dd 3e 0b 19 51 bf 42 35 61 bf
       0.32395244 0.43174094 -0.8167884 -0.8797189
000190 0d 06 c9 bf e5 d4 7b be ab 26 e7 3d 97 43 93 3c
       -1.5704972 -0.24592932 0.11286672 0.017976565
0001a0 7c a6 b0 3e d8 31 8a be d3 84 e7 be 68 85 c6 3e
       0.34502017 -0.26991153 -0.45218524 0.38773656
0001b0 ca 23 45 be ad 13 db 3d ce 9d 3d be 63 05 69 be
       -0.19251934 0.10697112 -0.18517229 -0.22755961
0001c0 45 79 2b be a9 14 e0 be 40 ec f4 3d 68 ca 2e be
       -0.1674548 -0.43765762 0.119591236 -0.170694
0001d0 e4 2c c7 be 8c ac 9b be e0 ee 9f bd 7b 03 b7 3e
       -0.38901436 -0.3040508 -0.07809234 0.35744843
0001e0 66 98 cc 3e 2d 55 09 be 8b f4 9c be 48 83 28 be
       0.3996002 -0.13411398 -0.3065532 -0.1645633
0001f0 d2 25 2f 3e cc 68 33 3d fb 39 2a be 6f 0c d0 3e
       0.17104271 0.043801114 -0.1662368 0.40634486

arith.constant1 f4 [16, 32]
000000 09 3e 85 be 66 b5 4a 3e 3c b3 9d be a1 fd ab be
       -0.26023892 0.1979576 -0.30800807 -0.3359194
000010 99 95 d9 bd fa e2 8d bc e0 6b 74 bc 38 53 1d 3d
       -0.106242366 -0.017320145 -0.0149182975 0.03840944
000020 62 fe a2 be 97 4b 60 be 59 2e 59 be 9d d8 83 be
       -0.31834704 -0.21903835 -0.21209086 -0.257512
000030 06 e7 f5 bd 9f cc 13 be c4 fd 2c 3e 94 2f 1f be
       -0.12006955 -0.14433526 0.16893679 -0.15545493
000040 9c f4 24 bd f0 b6 b7 bc 8d 6f 99 be 76 1e 22 3e
       -0.04027234 -0.022426099 -0.2996792 0.15831932
000050 81 6e a1 3e 89 4e 56 be 0e 74 4b 3e 44 94 b2 be
       0.3152962 -0.20928396 0.1986849 -0.34878743
000060 15 5b 89 3e c0 58 fc 3c 72 17 a2 be bd 50 88 3e
       0.26827303 0.030804038 -0.31658512 0.26624098
000070 a7 fa 0d 3d a7 f1 a2 be 1c b5 8c 3e 0c 14 9b be
       0.03466287 -0.3182499 0.27481925 -0.30288732
000080 3c fe cf 3e 72 67 21 3e 50 20 8e be 0c d5 52 3e
       0.40623653 0.15762118 -0.27759027 0.20589083
000090 49 04 bf be 35 85 86 bc 5a cd 75 be ff d2 ad bb
       -0.37307957 -0.01642094 -0.24004117 -0.0053046937
0000a0 61 17 5f 3e 17 ad 19 3d 46 7a 07 3e 00 b3 ce bb
       0.21786262 0.037518587 0.13230237 -0.0063079596
0000b0 9a 7f 3f be c5 b9 bc bd 2a cf ea bc ea 96 d0 3e
       -0.1870102 -0.0921512 -0.028663237 0.40740138
0000c0 df cf 6f be 19 db 51 3d 5b 70 25 be 12 da 20 3e
       -0.2341914 0.05123434 -0.16156141 0.15708187
0000d0 7b 18 75 be 73 93 52 3e f3 58 a4 3d da 1e 8f 3d
       -0.2393512 0.2056406 0.08024778 0.06988306
0000e0 b8 dd 8e be cb 01 ed 3d 78 70 f6 3d f7 5c ca 3e
       -0.27903533 0.115726076 0.120331705 0.39524052
0000f0 aa ee c7 bd 89 15 86 3e d7 f9 3f be 51 04 6c be
       -0.097623184 0.26188305 -0.1874765 -0.23048522
000100 7c 2e 4a 3e 4a 49 44 3e 5c 15 8c be 61 3f 66 3e
       0.19744295 0.19168583 -0.27360046 0.22485115
000110 ca 90 b3 3e da 09 ed bc c0 45 5d be ed 0f 50 be
       0.35071403 -0.028935362 -0.21608639 -0.20318575
000120 1e 57 73 3d f6 10 9d 3e f2 ca c7 3d 64 cc bc bd
       0.059409253 0.30677003 0.097555056 -0.09218672
000130 3e 9a 45 be fb 2c 36 be 12 41 d2 be 47 de e5 bb
       -0.1929712 -0.17790596 -0.4106527 -0.007015023
000140 85 5b 13 bf aa 0e f9 3c 7e 11 17 be f7 fe 8e 3e
       -0.5756152 0.0304025 -0.14752766 0.27928898
000150 35 d8 93 3d 38 11 4b 3e d6 47 92 be 29 c3 12 bf
       0.072189726 0.19830787 -0.2857043 -0.5732904
000160 35 9e 25 be f5 59 4e be d6 e0 85 be f2 85 05 3e
       -0.16173632 -0.20151503 -0.261481 0.13039377
000170 cf a3 64 3e a3 4e df 3e 86 72 38 3e 96 3f a5 3e
       0.22328113 0.43614683 0.18012437 0.32275075
000180 59 96 18 3f f0 6e 01 3d f2 c1 ec 3e 0d f2 76 be
       0.5960441 0.03159994 0.4624172 -0.24115773
000190 f6 81 ae 3e 13 09 b7 be fa 90 8a 3e 64 87 82 bd
       0.34083527 -0.3574911 0.27063733 -0.0637348
0001a0 67 91 79 be f5 2f 19 bb ae ab f9 3e b5 e3 57 be
       -0.24371873 -0.0023374532 0.48763794 -0.21082957
0001b0 b2 8b 42 be 9d b0 b0 be b4 ef cd 3d c7 1c cc bd
       -0.18998602 -0.34509745 0.10055485 -0.09966426
0001c0 35 d2 08 bf 95 2e 20 3e 15 33 01 3e 62 5a 55 3e
       -0.5344575 0.1564277 0.12617142 0.2083526
0001d0 6d 45 67 be c4 c7 91 bf 0a b3 8c be 4e ca 06 be
       -0.22585078 -1.1389089 -0.27480346 -0.1316311
0001e0 18 34 7e bd 8b 07 9c 3e 9f 18 90 3e 87 66 02 be
       -0.0620614 0.30474505 0.28143784 -0.12734424
0001f0 e5 c2 9c 3e 67 a0 ab 3d 92 d0 9d be 7c 36 a2 3e
       0.30617443 0.08380204 -0.3082319 0.31682193
000200 0e 25 7d be 99 2f 02 be 75 6a 69 be b8 8f 3f bd
       -0.24721166 -0.1271347 -0.22794516 -0.04676792
000210 f2 e0 42 3e d9 23 54 3e 4a 25 40 be 32 ba fc bd
       0.19031122 0.207168 -0.18764225 -0.123402014
000220 81 e3 54 be 26 65 26 be 4e 6b ec bd 94 af 10 be
       -0.20789911 -0.16249523 -0.11543904 -0.14129478
000230 5e 44 6f 3e b4 a0 7a be 78 85 81 3b 60 96 b4 be
       0.23365924 -0.24475366 0.0039526783 -0.35270977
000240 b7 0f fb 3e 18 d0 1b be 0d 36 5b be 1e bd 2b 3e
       0.49035427 -0.152161 -0.21407337 0.16771361
000250 c8 09 8c bd 00 63 29 3c 80 d0 3f 3d b6 e4 23 3e
       -0.06837803 0.010338545 0.0468297 0.16005215
000260 86 08 86 3e 00 e6 fa 3b 20 f3 1f 3c 0f 60 b3 3e
       0.26178378 0.0076568127 0.009762555 0.35034224
000270 18 c9 20 3e fe f6 15 bf 6b 41 03 be e8 7e 00 bf
       0.15701711 -0.58580005 -0.12817924 -0.50193644
000280 55 a9 c5 3e 80 f3 06 3c 18 95 13 3e ff 65 c4 3e
       0.38605753 0.008236766 0.14412344 0.38359067
000290 a4 10 47 3e 13 b3 66 bc 71 72 bb be 97 92 aa be
       0.19439942 -0.014080781 -0.3661075 -0.33314964
0002a0 55 fd 0b 3e 84 40 4e 3e 2a ab 80 3e 09 0c 47 be
       0.13670857 0.20141798 0.25130588 -0.19438185
0002b0 71 cb 10 be a7 d0 b7 3e a0 35 8f 3d 9f a0 57 be
       -0.14140107 0.35901377 0.0699265 -0.21057366
0002c0 e0 ad 79 bb 9f 69 00 bf ab 6d fd be da a4 7e 3e
       -0.0038098022 -0.50161165 -0.49497733 0.24867573
0002d0 48 83 1e be 9f 9c fd bd f2 c8 87 be 5b 64 bc 3e
       -0.15479767 -0.12383389 -0.26520497 0.36795315
0002e0 10 d0 d0 3d 2e 25 e8 bc 82 4c 2c 3e 16 30 dc 3e
       0.10195935 -0.028338041 0.1682606 0.43005437
0002f0 f9 7b 80 bb 1b 9d 23 3e 26 8f a5 be 58 2e 6f 3e
       -0.0039210287 0.159779 -0.32335776 0.23357522
000300 ac d2 e8 be e6 10 6e 3e 00 50 a4 3e 4b 29 b0 be
       -0.4547323 0.23248634 0.32092285 -0.34406504
000310 d0 1c 85 be 0a ff 76 3e 84 01 b7 be 9f 30 d5 bd
       -0.25998545 0.24120727 -0.35743344 -0.10409664
000320 8c d0 01 3e 71 a3 fc 3c 1c bc 99 be 9b 45 b8 3c
       0.1267721 0.030839654 -0.3002633 0.022494128
000330 f0 00 57 bd ff 6a 44 3c a3 86 cc 3e c6 f3 b1 3e
       -0.05249113 0.0119884005 0.3994647 0.34756297
000340 1c 0b 3d 3e 33 ec 06 bd 8f 09 89 3e 76 fa 15 3e
       0.18461269 -0.0329401 0.26765105 0.14646325
000350 58 46 97 3d ac 38 c0 3d 07 44 04 3e 01 f8 b2 3e
       0.07386464 0.09385809 0.12916575 0.34954837
000360 a6 e3 46 3e 3c 88 cf 3d 5d d3 8c 3e f5 9f 88 3e
       0.19422778 0.101334065 0.27505007 0.26684538
000370 cb 2c 0c 3f aa c3 7d 3d f9 c5 ba bc 50 b3 90 bd
       0.5475585 0.061954178 -0.022799479 -0.07065451
000380 47 11 58 be 04 4b 10 3e e7 3a 3e 3e 08 02 9b bd
       -0.21100341 0.14091116 0.18577157 -0.07568747
000390 e2 c4 87 3e ca d1 af be 9e 38 97 3e 15 cb ae 3e
       0.26517397 -0.34339744 0.29535383 0.34139314
0003a0 e0 e8 eb bd 52 9d 72 3e 99 99 97 be 70 b7 83 bc
       -0.11519027 0.23692825 -0.29609373 -0.01607868
0003b0 70 cc a5 be 4c 6c cc 3d 4c 0a 32 be b2 52 b0 3e
       -0.32382536 0.099815935 -0.1738674 0.34438092
0003c0 05 d1 86 bd 62 6a 85 be 9c 72 9e bd a0 ac f8 3c
       -0.06582836 -0.26057726 -0.07736704 0.030355752
0003d0 e8 b1 84 be f2 94 1b 3e 9f 0d 0b be 78 c5 ef bd
       -0.25916982 0.15193537 -0.13579415 -0.11707586
0003e0 a1 21 af be 95 62 7e 3e ba 18 35 be ee 05 86 3e
       -0.34205344 0.24842294 -0.17685214 0.261764
0003f0 8e 73 9b be e2 ee 30 3c 19 65 97 be 48 9f 0c 3e
       -0.303616 0.010799142 -0.2956932 0.13732636

arith.constant2 f4 [32, 64]
000000 53 68 4e 3e 4c 26 cd bb 95 c0 93 3e e2 07 f7 3d
       0.20156984 -0.006260669 0.28857866 0.120620504
000010 a4 ca 1e be e8 b5 60 be d1 94 f6 bc 73 a5 49 3e
       -0.15506989 -0.21944392 -0.030100258 0.1969202
000020 e7 30 4e 3e a0 6b 73 3e 7a fd 94 bc 03 59 4c 3e
       0.20135842 0.23771524 -0.018187273 0.1995583
000030 66 75 a0 be f0 ce ba 3d 38 20 71 bd e0 30 14 3f
       -0.31339568 0.091215014 -0.058868617 0.5788708
000040 4e c7 01 3e c8 ec 9d bd da 63 19 be d6 a8 23 3e
       0.12673685 -0.07711178 -0.14979497 0.15982375
000050 48 13 89 3d 0a a9 b3 be e1 d2 cd 3d 0e 5a 44 be
       0.06693131 -0.35089904 0.100499876 -0.19174978
000060 aa 38 73 be 26 ee b4 3e d8 68 82 3d 7e 04 54 3d
       -0.23752084 0.35337943 0.063676536 0.051762097
000070 71 2f f8 3e dc 0d a4 3e e2 29 6f 3e a9 50 9a 3d
       0.48473695 0.32041824 0.23355821 0.07534916
000080 de 8f 9d 3d 7a 14 13 3e ca cb 27 3f 24 17 5d be
       0.07693456 0.1436328 0.6554533 -0.21590859
000090 69 f1 10 3e 66 0e 0d 3e 00 ed c0 bc ff 8e 36 3c
       0.1415459 0.13775024 -0.02355051 0.011142491
0000a0 04 13 a0 be 4d bc c2 bd 1e d7 73 3e c0 43 83 3d
       -0.31264508 -0.09508572 0.2381253 0.06409407
0000b0 cf 1f e8 3c ba be 58 be 29 1c e7 3d a2 b7 b8 3e
       0.02833548 -0.21166506 0.11284668 0.360776
0000c0 92 68 50 be 00 19 08 be 4d 15 55 3d 00 0d ac be
       -0.2035239 -0.13290787 0.052022267 -0.33603668
0000d0 00 fb 8a bb e2 2e bc bd 9e 9e 5c 3e 24 86 3c 3e
       -0.0042413473 -0.0918863 0.21544883 0.18410546
0000e0 7a 49 36 3c fc c1 6f be ed 03 e1 3d 95 3e b2 bd
       0.011125917 -0.23413843 0.10987077 -0.08703343
0000f0 1f 32 37 be 43 d8 a8 be 62 0b 32 bd df ec c5 bd
       -0.17890213 -0.32977495 -0.043467887 -0.0966432
000100 a0 4a d1 3c 18 e9 b9 3d ec c4 38 be 84 29 36 be
       0.02554828 0.09077662 -0.1804387 -0.17789274
000110 30 72 d4 bd 5c c9 07 be 58 b8 e0 bd f4 51 76 be
       -0.10373342 -0.13260406 -0.10972661 -0.240547
000120 98 56 48 3e 00 41 d1 bc 48 17 5d 3e 30 1d d4 bd
       0.19564283 -0.02554369 0.21590912 -0.103571296
000130 e4 d4 5f be 5c 4e 2c 3e 58 ae 46 3e c8 d2 70 3e
       -0.21858555 0.16826767 0.19402444 0.23517907
000140 4c a3 3d 3e 80 8a c2 bc 0c 81 5d be f4 dd 78 be
       0.18519324 -0.023747683 -0.21631259 -0.24303418
000150 d4 d6 05 3e 68 85 bf bd 00 3b d5 bc 90 97 56 3d
       0.13070232 -0.09351617 -0.02602911 0.052390635
000160 40 dd 94 3d f8 f8 a6 3d cc 16 08 be 40 05 62 be
       0.072687626 0.08152956 -0.13289946 -0.22072315
000170 24 55 27 be 00 2e db 3c 80 55 61 bc cc 94 54 3e
       -0.16341072 0.026755333 -0.013753295 0.20759887
000180 80 12 61 be 14 24 1f be c0 e2 a6 3c d0 1a 1f 3d
       -0.21979713 -0.15541106 0.020371795 0.03884393
000190 34 4d 26 3e 20 51 48 bd 20 14 74 3d e0 0f 16 3e
       0.16240388 -0.04890549 0.059589505 0.14654493
0001a0 90 cd 9a bd 38 4e eb bd ec ea 12 be 80 99 2f bd
       -0.07558739 -0.114895284 -0.14347428 -0.042871
0001b0 70 01 9a 3d 70 aa 79 3d 24 29 1c be 40 7b 3e 3e
       0.075198054 0.060953557 -0.15250069 0.18601704
0001c0 d4 9f 1b be b8 58 3d be a0 07 43 bd 80 f8 28 3d
       -0.15197688 -0.18490875 -0.047614694 0.041252613
0001d0 b8 b0 f1 bd e8 20 68 be 00 6b 15 bb cc ac 79 be
       -0.118012846 -0.22668803 -0.0022799373 -0.24382323
0001e0 d8 f3 d6 bd 00 aa 85 3b 48 10 54 3e ac 16 7f 3e
       -0.10495728 0.0040791035 0.20709336 0.24910992
0001f0 18 89 9a 3d d0 d3 22 3d 2c 03 55 3e f0 b0 78 3d
       0.0754568 0.03975278 0.20801991 0.060715616
000200 45 dc e2 bd e4 c3 2c be a1 8d 28 3e c8 6a 3e bb
       -0.11077169 -0.16871601 0.16460277 -0.0029055346
000210 d4 6a 13 3e 10 fc f4 bd 24 95 dd bd 9c 73 82 bd
       0.1439622 -0.119621396 -0.10819462 -0.06369707
000220 91 0e 46 3e 91 86 72 3e e8 91 ef bd a2 59 8c bd
       0.19341494 0.23684146 -0.11697751 -0.068530336
000230 b9 f4 6d be 70 57 f3 bd 50 0e 78 3e cf 8c 97 be
       -0.23237886 -0.11881912 0.2422421 -0.29599616
000240 6a 49 4c be 2c 63 33 3e bb 57 65 bc d2 dc 62 3d
       -0.1994988 0.175183 -0.013997967 0.055386372
000250 12 41 b5 bc 3f 81 19 3d a9 d4 bc 3d 4c 89 42 bd
       -0.022125755 0.037476774 0.09220249 -0.047494218
000260 f1 c8 af 3d 35 f2 e5 3d a8 d4 91 bd 28 4f 33 be
       0.085832484 0.11227838 -0.07120639 -0.17510664
000270 0f bf 7a 3e 7d 32 1e be 68 b9 42 3e 80 a9 42 bd
       0.24486946 -0.15448947 0.1901604 -0.04752493
000280 be 68 3b 3d 2d 75 79 3b de 1d 27 3e 20 40 26 bd
       0.045754187 0.0038064227 0.16319987 -0.040588498
000290 8f ea 64 bd eb d9 57 bd 6a f2 5d bc 78 07 c2 3d
       -0.055887755 -0.052698057 -0.013546566 0.09474081
0002a0 d8 2b 24 3e ad 6c cc 3c 69 53 ce 3e 87 f0 0f be
       0.1603235 0.024954164 0.40298012 -0.14056598
0002b0 68 ac 73 3d ae d0 58 3d 13 d8 1b be 41 d4 29 3e
       0.05949059 0.052933387 -0.15219145 0.16584875
0002c0 d5 03 40 be 58 a0 1a 3e de 9c 49 be 3b 87 d2 3d
       -0.18751462 0.15100229 -0.19688746 0.102796994
0002d0 86 57 8b 3d 6e 24 17 3e 97 c2 4e 3c 6c 47 25 3f
       0.06803803 0.1475999 0.012619636 0.64562106
0002e0 00 6b 39 be 7c 4b 06 3e a3 0b bb bd 5b 00 3f 3d
       -0.18107224 0.13114733 -0.09133079 0.0466312
0002f0 1d 8e b8 3b 08 12 3f be 80 3f 77 3c a2 01 26 be
       0.0056321756 -0.18659222 0.015090823 -0.1621156
000300 81 e1 fa 3a 75 60 68 be e0 78 6b 3e b3 b5 ea bd
       0.0019140692 -0.22693045 0.22995329 -0.114604376
000310 f0 fe 9c bd ec ab 48 3e c0 30 79 bd 4f f3 c7 bc
       -0.07665813 0.19596833 -0.060837507 -0.02440801
000320 38 26 81 3e c0 48 95 3c 00 a6 cd 3b 9d 9d 61 3e
       0.2522447 0.018223166 0.0062758923 0.22032781
000330 43 f9 4e be 4c 92 1c 3e b9 88 86 bd 43 a3 63 bd
       -0.20212273 0.15290183 -0.065690465 -0.05557562
000340 4c 1d 4b 3e a8 30 f0 bd 8c f9 10 be 4f ae 9a bd
       0.19835395 -0.117280304 -0.14157695 -0.07552778
000350 18 ba 8b 3d c8 24 15 be ee ce 0c be 25 c2 54 be
       0.06822604 -0.14564812 -0.13750812 -0.20777185
000360 7e b7 f1 3d 64 36 e6 3c 78 bb af bd f5 3a 1b be
       0.118025765 0.028102107 -0.08580679 -0.15159209
000370 5e ba e4 3e 49 54 15 be 26 b1 65 3e a8 32 d1 bd
       0.44673437 -0.14582933 0.22430858 -0.1021474
000380 66 93 01 3e 5c c0 1f be 99 8d 8b 3e 58 77 6d be
       0.12653884 -0.15600723 0.27256468 -0.23190057
000390 5e 27 85 be 30 5d f2 bd 8c bc 46 be d7 ed 4f 3d
       -0.26006597 -0.1183418 -0.19407862 0.05076393
0003a0 dc a9 69 be f4 01 47 be 17 32 b0 be c5 22 36 be
       -0.22818702 -0.19434339 -0.34413216 -0.17786701
0003b0 0e 16 7c 3e 3c ef d9 3d d2 4e 50 bc 41 db 8a be
       0.24617788 0.106413335 -0.012714105 -0.27120402
0003c0 ca e5 1b 3e 70 7e 27 3d 60 f8 ad bd 42 8d 8a be
       0.15224376 0.040892065 -0.084946394 -0.27060896
0003d0 e2 9d 4c bd a4 bc b1 bd 9f a9 98 3d 2d 27 df be
       -0.049955256 -0.086785585 0.07454228 -0.43584576
0003e0 ea d0 c7 be 0c af 6e 3e a2 98 ba bd bc 94 27 3e
       -0.39026576 0.23308963 -0.09111144 0.16365331
0003f0 88 f7 7b be e7 48 ed be 09 ad 3f be 7d 10 f6 3d
       -0.24606144 -0.46344683 -0.18718351 0.12014864

arith.constant3 f4 [64, 128]
000000 5c 43 f4 3c c1 10 8c 3e c1 56 a7 bd c8 8c 86 3e
       0.029817276 0.27356532 -0.08170844 0.26279283
000010 d3 24 d1 bc 7a 1f 03 3e e8 aa 43 be c5 9c 2a 3d
       -0.025530254 0.12804976 -0.19108164 0.041653413
000020 25 40 1b bc 57 b2 2b bd bb 1a b6 bd e0 bb 55 3c
       -0.0094757425 -0.041918125 -0.08891817 0.013045281
000030 8f 74 70 bd 15 11 98 bd 34 7a 43 3d bb f4 44 3d
       -0.05870491 -0.07425133 0.047723964 0.048084956
000040 19 e9 8d 3d 9b e3 1f be d6 43 c4 3e 78 a2 47 be
       0.069292255 -0.15614168 0.38333005 -0.1949557
000050 85 46 e6 bd 13 e3 0b 3b 91 bd a8 bc 4c 49 65 3c
       -0.11243919 0.0021345064 -0.020598205 0.013994526
000060 7a 7f f1 bc 36 7f cc bc 99 64 12 be c6 ca 21 bd
       -0.02947973 -0.024963003 -0.14296187 -0.03950002
000070 86 55 92 3e 91 54 c2 bd b4 4e 20 3e 9f 4c 8e 3e
       0.28580874 -0.09488786 0.15655023 0.27792832
000080 42 17 3a 3d 10 3b 2b be 6f 91 52 bd c0 b6 19 be
       0.045432337 -0.1672175 -0.051408228 -0.1501112
000090 ac 72 d3 bc 84 40 2a 3e bc c1 44 3d da ec d8 3c
       -0.025811516 0.16626173 0.048036322 0.026480127
0000a0 42 b6 24 bd df cf 74 bd 69 c3 13 bd ca 3c c0 bd
       -0.040212877 -0.059768554 -0.03607503 -0.093865946
0000b0 f8 53 8c 3d 7a cf 24 3d 42 77 20 3e 7e f9 2b be
       0.06851953 0.040236928 0.15670493 -0.16794392
0000c0 e7 eb 81 3e 95 9c b5 3d 53 cb 26 be d3 77 a3 3e
       0.25375292 0.08867756 -0.162885 0.31927356
0000d0 86 42 05 be fe 2d 8d 3e d1 cb 04 3d 07 40 b7 bd
       -0.13013658 0.27574152 0.032420937 -0.08947759
0000e0 fd 72 49 3d c6 d7 af 3e b2 b6 12 3c 95 70 f7 3d
       0.049181927 0.3434431 0.008954691 0.1208202
0000f0 1a ae 20 be 32 93 85 3e fc 5e 27 be 9c b1 20 3d
       -0.15691414 0.26088864 -0.16344827 0.03923188
000100 30 ab 88 3e 9a f4 41 3d 43 b6 08 3e df 4c 2b bc
       0.26693106 0.04735241 0.13350777 -0.010455339
000110 5d 8a 8c 3d f1 c6 ca 3d d8 19 01 be 86 e3 c8 3e
       0.06862328 0.09901226 -0.12607515 0.39236087
000120 92 65 cd bd fe 92 63 bc 9c 38 1f be 2f 3d d1 3e
       -0.100291386 -0.013890026 -0.15548939 0.40866992
000130 fb 0c 21 3e 2d ce 59 3e f7 42 23 3e 7a 29 a0 3e
       0.15727608 0.21270056 0.15943514 0.31281644
000140 b8 b5 b9 3e ec 9f 15 3e c3 10 b3 bd 7d 86 32 3e
       0.36271453 0.14611787 -0.087434314 0.17434116
000150 d5 32 71 3e 54 2f 87 3d fb 44 e6 3d 4e d3 be 3e
       0.23554547 0.06600824 0.11243626 0.37270588
000160 b3 3f 05 3e e0 c6 20 3e 9e b3 bc bc 56 ac 95 be
       0.1301258 0.15700865 -0.023034867 -0.29233044
000170 54 36 6b bd 71 08 a8 bd 49 3d 6b 3c e2 db 4e 3e
       -0.05742486 -0.08204735 0.014357873 0.20201066
000180 fc 76 d3 bc a1 1e 24 3e 2f 36 97 3d d5 46 c7 bd
       -0.025813572 0.16027309 0.073833816 -0.09730307
000190 00 f1 f9 3b 50 fd ee 3d 95 aa 92 3d 45 19 0f be
       0.0076276064 0.11669409 0.07161442 -0.13974483
0001a0 2e e1 e0 bd 9e 97 2a be 11 5e 3b 3e 6a 27 83 3e
       -0.109804496 -0.166594 0.18297602 0.25616008
0001b0 81 94 d4 3e 45 73 28 3e e0 f4 1e bd 49 56 09 3e
       0.4151955 0.16450222 -0.03880775 0.13411821
0001c0 f4 13 3e be f7 34 dc bd 55 cb b8 3c 1d 48 1c 3e
       -0.18562299 -0.1075229 0.022557894 0.15261884
0001d0 92 7c 35 3d 59 b9 cc bc 7a 1c e7 3c ed 4e dd 3e
       0.044308253 -0.024990724 0.02821182 0.43224278
0001e0 fd 2e 29 3e 17 d1 75 3d 40 9f 5e 3d cb 05 f4 3d
       0.16521831 0.060013857 0.05435109 0.119151674
0001f0 38 76 4e 3e 09 89 b2 bd f9 0b ae 3e be 6f d2 bd
       0.20162284 -0.08717544 0.3399351 -0.102752194
000200 e3 67 2c 3d 2f 73 06 3e b7 a4 34 be ef 0f ba 3e
       0.04209126 0.13129877 -0.17640959 0.3634028
000210 33 3d 2e 3e 14 9d 2d be 30 c6 ee be a9 99 55 be
       0.17015533 -0.16954452 -0.4663558 -0.20859398
000220 fa 8e 07 3e 33 55 11 be a2 47 25 be 17 75 24 3e
       0.13238135 -0.14192657 -0.16140607 0.16060291
000230 03 72 2f be c9 00 fb bd 16 3b 02 3e 2d 22 06 3d
       -0.17133336 -0.12256009 0.12717852 0.032747436
000240 66 3f 92 3d 87 f0 1b 3e e9 dd d5 3e 7b e5 e8 3a
       0.071409985 0.15228473 0.41770867 0.0017768586
000250 cc 10 9c 3d 9f 02 dc 3a 86 92 e1 be cf 86 d5 3d
       0.07620391 0.0016785449 -0.440571 0.10426103
000260 56 30 c3 3d 78 3d dd bd a2 9d e7 3d 4b e0 a6 bd
       0.09530704 -0.1080274 0.11309363 -0.08148249
000270 18 95 f0 be 39 81 b5 bc 87 65 43 3b dc 5b 1c 3e
       -0.4698875 -0.022156345 0.0029815154 0.15269417
000280 f8 ec 11 be 93 29 63 be d1 5a 43 3d 6a e8 a9 be
       -0.14250553 -0.22183828 0.04769403 -0.3318513
000290 8d 86 15 3e e6 da 3c 3d b4 ba 26 3e 1f fa ee bd
       0.14602108 0.046107195 0.16282159 -0.116688006
0002a0 30 01 1d 3d ee 21 cc bd 82 00 97 be 5e 64 a9 be
       0.03833121 -0.09967409 -0.29492575 -0.33084387
0002b0 6e c1 0d 3d 99 3d 02 3e 89 53 f1 be fd 80 98 3d
       0.034608297 0.1271881 -0.47134045 0.074464776
0002c0 22 5a da 3e f6 61 55 be 22 03 b5 bd e0 7c f2 3d
       0.4264689 -0.2083815 -0.08838488 0.11840224
0002d0 8d 94 ea be 85 bd ec 3d a6 14 98 bd 95 54 21 be
       -0.4581646 0.115595855 -0.074258134 -0.15754922
0002e0 7a 4b 26 3e 8c ee a4 3d f1 3d d1 3d 79 c5 bb bd
       0.1623973 0.08053312 0.102168925 -0.09168524
0002f0 10 ae 14 3d 02 ff 24 3e 7d 0f c2 bd d1 32 99 bd
       0.03629881 0.16112903 -0.094756104 -0.074803956
000300 7d 94 9a 3e 31 5b 29 bd 13 75 0a 3e 88 f3 e7 bb
       0.30191413 -0.041346733 0.13521223 -0.0070785917
000310 77 cd 07 be 5d 60 09 be 84 14 bd be 0f c3 a9 3e
       -0.13261972 -0.13415666 -0.36929715 0.3315663
000320 95 cd 0b be 22 b0 2c 3e aa b8 af 3c cf e4 90 3e
       -0.13652642 0.16864064 0.02145036 0.28299567
000330 84 de f9 bd fe 03 af 3e 41 82 c7 3d d3 a1 0a 3e
       -0.122006446 0.34182733 0.09741641 0.13538294
000340 d0 b5 80 3e 3f 66 4f 3c f1 83 b0 bd e2 2a a5 3d
       0.25138712 0.012658655 -0.08618916 0.0806482
000350 ae 53 d1 3d da 00 c1 3c 89 b2 69 3e 8d b3 04 3e
       0.10221039 0.023559976 0.22822012 0.12959118
000360 de c3 3c be d4 66 27 bd 2f e8 8f be 45 ee 03 3d
       -0.18434092 -0.04086955 -0.2810683 0.032209653
000370 cc 57 1c be 5d 6b 14 3d f2 fa a5 3d 2b 6b d3 3d
       -0.15267867 0.036235202 0.08104505 0.10323175
000380 5c a1 88 be b8 ac 54 3d 8e 79 0f be 6a 77 89 bd
       -0.26685607 0.05192253 -0.14011213 -0.067122295
000390 97 bd 0d 3e b0 dd 1d bd 0c c7 8f bd ad 40 9b bd
       0.13841854 -0.038541496 -0.07020387 -0.07580695
0003a0 23 bc 01 be 6f 66 26 3e 67 2d ca 3e 35 87 8b bc
       -0.12669425 0.16250013 0.39487764 -0.017032245
0003b0 01 75 cd 3e 41 12 16 b9 d4 ca 56 bd 1f f3 b6 3d
       0.4012833 -0.00014311915 -0.052439526 0.089330904
0003c0 9d f4 04 bf 49 69 f2 bd 42 d2 a5 bc b5 00 b6 3d
       -0.5193575 -0.11836488 -0.02024186 0.088868536
0003d0 08 98 9e bc c6 b4 14 bd c5 66 d3 be 09 02 d1 3e
       -0.019359604 -0.03630521 -0.41289344 0.40821865
0003e0 c0 52 30 3b 38 7c a5 be 79 1b 14 3e 30 8a 8f 3e
       0.0026904792 -0.32321334 0.14463605 0.28035116
0003f0 f9 ad 03 bf 13 5f 11 be 26 0c 61 3e 2e 51 61 3d
       -0.51437336 -0.14196424 0.2197729 0.05500906

arith.constant4 f4 [128, 256]
000000 14 a2 f3 3d a3 e0 26 bd 37 fc c4 bd c4 24 07 3e
       0.11896148 -0.040741574 -0.09618419 0.13197619
000010 78 89 e1 3d 77 92 41 3e 97 46 9a 3a da 05 e2 bd
       0.11012548 0.18903528 0.0011770305 -0.11036272
000020 ba e8 15 bd d2 5d f9 3d 70 01 5c bd 24 62 ef 3c
       -0.0365989 0.12176098 -0.05371231 0.029221602
000030 54 ca 16 be c2 93 7f bb 82 85 92 bc 62 c7 a0 bd
       -0.1472562 -0.0038997983 -0.017885927 -0.07850529
000040 ec 75 76 bd d0 ed 8e 3d 27 f7 e3 3d 4e fe f8 3d
       -0.060171053 0.06978953 0.11131125 0.1215788
000050 44 06 c4 bc ad a8 6d 3d d5 00 05 3e ff 6f 29 3e
       -0.023928769 0.05802219 0.12988599 0.1654663
000060 1c d4 32 3d 59 88 ce bd 35 ba 1d be 58 26 8e bd
       0.043659315 -0.100846 -0.15403064 -0.06940907
000070 4a a6 25 3e 66 84 10 3d 0a 26 f9 bd b2 6e a7 3d
       0.16176715 0.035282515 -0.121654585 0.0817541
000080 b8 de 05 be 11 57 d9 3c 70 fb 69 bc 53 9f bd bd
       -0.13073242 0.026530774 -0.014281139 -0.09258904
000090 91 a0 25 be 11 3a 26 bd 7c 51 f4 bd 9b 70 89 3d
       -0.16174532 -0.04058272 -0.119296044 0.06710931
0000a0 05 fb 85 bd f7 14 25 be 89 02 72 3d 45 b2 8c bd
       -0.06542019 -0.16121279 0.05908445 -0.0686994
0000b0 7d 4f 03 be f5 89 42 be 00 25 9d bd f8 db ea 3d
       -0.12823291 -0.18997939 -0.07673073 0.11467737
0000c0 b7 aa e1 bd 00 83 5e 3d 62 e4 05 bd 26 20 3b 3e
       -0.110188894 0.05432415 -0.032688506 0.18273982
0000d0 49 3c 1f 3d 32 43 0e 3e fa 3a 8d bc 5a 8c 06 3e
       0.03887585 0.1389282 -0.017240036 0.13139477
0000e0 b3 3a af bd 25 76 97 3e f6 9b 2f be bb 58 b4 bc
       -0.08556118 0.29582325 -0.17149338 -0.022014966
0000f0 01 b9 5f 3d 14 98 29 bd c4 a8 54 3e 24 57 4c 3d
       0.054619793 -0.0414048 0.20767504 0.04988779
000100 77 7a d1 3c 99 c7 e7 3c 0f f4 ca bd 7b e4 ee 3d
       0.025571091 0.028293418 -0.09909832 0.11664673
000110 9b 51 6b bd 87 4c 5d 3d 90 00 b4 3d 9c 0a 71 3d
       -0.057450872 0.05402806 0.0878917 0.05884801
000120 e9 1a a6 3d d3 39 08 bd 7c 30 92 3b 20 2d 4f bd
       0.081106015 -0.03325827 0.004461346 -0.050580144
000130 de 99 6b 3d c4 76 cc bd 5f a4 46 3d 04 83 de 3b
       0.057519786 -0.0998359 0.0484966 0.0067905206
000140 b6 bf 15 be 26 62 cb bc d3 9c d3 bc 61 ab f6 3c
       -0.14623913 -0.024827074 -0.025831616 0.030111017
000150 cf 55 05 3e b3 fb 8f 3d 83 41 21 be f0 d0 08 3d
       0.13021015 0.0703043 -0.15747647 0.033402383
000160 45 e0 3e 3d 97 ed 9b 3c 29 ff 07 be 0e 2f 28 bc
       0.0466006 0.01903419 -0.1328093 -0.010265125
000170 70 b8 e2 bd e9 fb 09 3e cd 00 25 be fc 80 aa bb
       -0.11070335 0.13475002 -0.16113587 -0.0052033644
000180 83 b8 ba bd fc 30 81 3d a7 1e 0d 3d 0b c9 60 3d
       -0.09117224 0.06308171 0.03445306 0.05487923
000190 dc b7 81 bd 9b 0d b9 3d c2 5b f3 bd b4 bf 22 bb
       -0.063338965 0.09035798 -0.11882736 -0.0024833502
0001a0 b5 c7 ce 3d 82 91 af 3c f2 a2 4f 3d dd 05 95 bc
       0.10096685 0.021431688 0.050692506 -0.018191272
0001b0 40 ef f3 bb 91 a4 25 3d d5 cc e9 3d 67 6e 9d 3d
       -0.0074442923 0.040440146 0.11416022 0.07687073
0001c0 29 04 d3 3c 41 80 8f 3c 9c 8f ee 3b 56 93 66 3d
       0.02575882 0.01751721 0.007280303 0.056292854
0001d0 e0 18 07 3e 3e e0 f0 bd b2 bd b0 3d a6 c9 d6 bc
       0.13193083 -0.11761521 0.086299315 -0.0262192
0001e0 46 b7 86 3d 38 f3 ec bd 77 d6 65 3d 88 82 24 3d
       0.065779254 -0.11569828 0.056112733 0.040163547
0001f0 82 69 c0 3c ce a6 57 3d d3 e6 83 bd 6f d4 b2 3d
       0.02348781 0.05264931 -0.064405106 0.08731925
000200 0f c8 2d 3c b2 41 3f 3e 13 89 b7 39 5d 25 34 3d
       0.01060678 0.18677405 0.00035006608 0.043980945
000210 81 0e 7c 3d 9f ef 7b 3d 63 c4 9c bd ac 3d 05 be
       0.06153727 0.061507817 -0.07654645 -0.13011807
000220 f3 75 73 3c 87 31 88 3e 89 d6 6c bd 34 19 37 bd
       0.014859664 0.26600286 -0.057821784 -0.04470177
000230 68 69 82 bd d7 17 28 bd e8 b2 eb 3b 9b 22 0a 3e
       -0.06367761 -0.04103836 0.007192958 0.13489763
000240 4e 79 bc 3d d3 a4 c6 bd 16 db d6 bc 90 e9 70 3d
       0.092028245 -0.096994065 -0.026227515 0.058816493
000250 de fa a7 3d 1e 0c 14 3b 48 5b 12 3e 1a 12 85 3d
       0.08202146 0.002259023 0.14292634 0.06497593
000260 5e c6 ac 3d a1 b4 fb bd f8 77 ce 3d b2 51 91 bb
       0.08436273 -0.122903116 0.10081476 -0.0044347877
000270 a4 47 14 3c 68 87 9a bc 0c 33 1a bc c9 d5 17 bd
       0.009050284 -0.018863395 -0.009411585 -0.037069116
000280 3d 7e f2 3d 1c 41 ce 3d 71 c9 1f be 7e 49 30 bd
       0.11840484 0.100710124 -0.15604188 -0.043038838
000290 fc bb c8 3c 29 f7 97 3d 83 35 b9 bd 5c 2e b4 bd
       0.0245037 0.07420189 -0.0904341 -0.08797905
0002a0 ea f0 0f ba 17 22 bf 3e 75 89 53 3e ab 03 87 3e
       -0.0005490916 0.37330696 0.20657904 0.26369986
0002b0 6d 26 33 bc d4 1f 30 be 71 3a 9f 3d f2 8e 14 be
       -0.010934454 -0.17199641 0.07774819 -0.14507654
0002c0 83 ac ac bd cb 7d 17 be 49 27 c1 3d b1 60 29 be
       -0.084313415 -0.1479408 0.09431321 -0.16540791
0002d0 de 21 44 3e 5f a8 c9 3c db 01 14 3e b0 66 00 3d
       0.19153544 0.024616418 0.14453833 0.03134793
0002e0 59 6b cb 3c a3 ad 02 be 9f 29 0b 3d c7 25 a2 3d
       0.02483146 -0.1276155 0.03397524 0.07917362
0002f0 b0 62 5d 3d 68 42 a1 3e 63 2a 5e be 26 36 a2 bd
       0.054049194 0.31495976 -0.21695857 -0.07920484
000300 5e 2b bd bd 15 98 27 be 61 6b 8d 3e 9a d8 5f 3d
       -0.09236787 -0.16366608 0.27620986 0.054649927
000310 f9 92 ed 3d c1 03 2e 3e 11 f0 1d bd 64 d7 44 3e
       0.116002984 0.1699362 -0.038559023 0.1922279
000320 aa 3e 0e be 20 98 3f 3e ab fe 27 be 64 21 a7 bd
       -0.13891092 0.18710375 -0.16405742 -0.08160666
000330 3e 43 e3 3c 9d 17 3c 3e 1b 77 da 3c e0 9c 19 be
       0.027742025 0.18368383 0.026668122 -0.1500125
000340 07 f5 e1 bd 39 35 09 be 3d 5f e3 3b 5e 60 ca 3d
       -0.110330634 -0.13399209 0.0069388435 0.09881662
000350 38 4b 13 3e 33 08 7a 3e 40 33 d3 bb 23 e4 9d bd
       0.14384162 0.2441719 -0.0064453185 -0.07709529
000360 6d 95 a4 3d 54 77 35 be 3d f3 fa 3d ca 5b 8b 3d
       0.08036313 -0.17721301 0.12253425 0.06804617
000370 e0 de 27 be e3 a4 ca ba a3 38 f8 bd e2 4f a7 3c
       -0.16393614 -0.0015460517 -0.121201776 0.020423833
000380 66 11 ff bd 80 36 1e bd e9 2a ef 3c 92 c0 98 3d
       -0.1245449 -0.038626194 0.029195266 0.07458605
000390 79 53 54 bd 43 52 c2 bc ed ac 91 bd 73 4d ce 3d
       -0.05183742 -0.023720866 -0.07113061 0.10073366
0003a0 19 35 47 bd 05 26 cf 3d aa 44 50 3e 99 da 6b bc
       -0.048634622 0.101146735 0.20338693 -0.014395379
0003b0 17 c5 18 3d 15 53 ef 3d 81 55 88 3c a6 0c bc 3c
       0.037297335 0.116857685 0.016642334 0.02295525
0003c0 8c cf c3 bb ab 7e 8d bd 0d fd 95 3d b2 df 37 3e
       -0.0059756692 -0.069089256 0.07323656 0.17956427
0003d0 70 79 08 bd 0d 27 1e 3e 58 ba b9 bc 82 8f 7e 3c
       -0.033318937 0.15444584 -0.022671863 0.015537145
0003e0 d7 7e 5a 3d 80 44 ed bd 99 db 8d 3d b4 84 a3 bd
       0.05334362 -0.11585331 0.069266506 -0.079842955
0003f0 71 4c 89 3d 0c 3e 11 be 76 aa bd bc 29 5a 7b 3d
       0.06704033 -0.14183825 -0.023152571 0.06136528

arith.constant5 f4 [8]
000000 a9 0d 24 3d 9d e0 a1 3d 77 74 b6 be 81 de 82 3d
       0.04005209 0.0790417 -0.3563573 0.063900955
000010 53 09 d5 3d ce ef 5e be a2 fb 62 3c 61 70 6f 3e
       0.10402169 -0.21771166 0.013853939 0.23382713

arith.constant6 f4 [16]
000000 4f aa 00 bc 53 b6 df bc 67 12 26 3e 21 71 67 3d
       -0.007853105 -0.027308619 0.16217957 0.056504373
000010 d5 b5 49 be e8 11 cf bd d8 28 18 3e 8d 03 ea bb
       -0.1969827 -0.10110837 0.1485933 -0.0071415366
000020 31 9c 0e bd 68 e9 7e bc 95 4f 94 bc 00 00 00 00
       -0.034816924 -0.015558578 -0.018104354 0.0
000030 cb 0a 10 3d 11 d4 27 be 56 ea 58 bd ab d6 fa bc
       0.035166543 -0.1638949 -0.052957855 -0.03061994

arith.constant7 f4 [32]
000000 96 e1 59 bb 00 00 00 00 65 44 ae bc 06 69 06 bd
       -0.0033246032 0.0 -0.021272847 -0.032815002
000010 42 b4 fa bc c2 65 a9 bc e0 e9 2b 3d a9 06 c8 bc
       -0.030603532 -0.020678405 0.041971087 -0.024417238
000020 67 96 43 bc 8c 43 98 bc 96 e9 07 bb a3 90 c6 bc
       -0.011937714 -0.018586896 -0.0020738593 -0.02423889
000030 00 00 00 00 d4 97 c8 bc da 18 61 3d 36 9d bb 3b
       0.0 -0.02448646 0.05495534 0.005725528
000040 1f 7c 18 be 9f 54 b4 bd 84 b0 6e 3d 00 00 00 00
       -0.14891098 -0.08805203 0.058273807 0.0
000050 2b e1 e2 bc 6f 33 52 bd 7a 9c fe bc 5d 3c 6b be
       -0.02769526 -0.051318582 -0.031080473 -0.22972246
000060 5e f1 3a bc 67 ad c8 bb 00 00 00 00 cd cc 81 bd
       -0.0114100855 -0.006124187 0.0 -0.06337891
000070 a5 aa 8c 3e 88 f7 66 3e e6 fd 5a 3d 5c 85 8c 3d
       0.2747394 0.22555363 0.053464793 0.06861374

arith.constant8 f4 [64]
000000 3c 5a 83 3e 20 f7 11 3e 9a 1f f1 3d 39 64 17 3d
       0.2565478 0.14254427 0.11773606 0.036960814
000010 4a ad 10 bd 00 00 00 00 1b 31 8c bc 04 db 74 3e
       -0.03532151 0.0 -0.017113259 0.23911673
000020 e8 78 3e bc 09 69 24 bd 36 c2 a8 bb c5 56 f8 3d
       -0.011625506 -0.04013923 -0.005150105 0.12125925
000030 18 c5 b6 3c 00 00 00 00 50 94 ac 3a 7f 4a ee 3d
       0.022310778 0.0 0.0013166759 0.11635303
000040 26 09 72 be 00 00 00 00 8a bb dc bc ca bb 80 3c
       -0.23636302 0.0 -0.026944894 0.015714545
000050 0a 30 8f 3b a7 8e 97 3e 47 be ba bc 92 06 f6 bb
       0.0043697404 0.29601023 -0.02279581 -0.0075081075
000060 21 bd 7e 3e cf 1c 16 3e 00 00 00 00 5f 12 1a bc
       0.24876834 0.14659427 0.0 -0.009403794
000070 a7 da 87 3d bc fb c7 3d 24 b4 d2 bc ef 30 0e bc
       0.066335015 0.097648114 -0.025720663 -0.008678659
000080 4c 92 0d bd 58 b0 7d 3e 66 10 d5 3d 00 00 00 00
       -0.034563348 0.24774301 0.104035184 0.0
000090 08 6c 5a be a2 e6 c5 3d 72 0d eb bb c9 b7 18 bc
       -0.21330273 0.0966313 -0.0071732337 -0.009321162
0000a0 53 ee da bd 2d ff ff bc e5 c0 b6 bd 50 29 8a 3e
       -0.10689988 -0.031249607 -0.089235105 0.26984644
0000b0 e8 0d 51 3c 58 4a 2d 3c bd 69 34 3e ea e3 84 bd
       0.012759663 0.010576807 0.17618461 -0.06488784
0000c0 eb 34 2b be 4d b3 02 bd a2 09 7f bd 74 17 4f 3e
       -0.16719405 -0.031909276 -0.062265046 0.2022379
0000d0 1b 85 2b be 65 b3 b6 bb 6a f4 4d 3e 6b 83 87 bd
       -0.16749994 -0.0055755847 0.20112768 -0.06616863
0000e0 26 c4 9b 3c 00 00 00 00 c6 af b7 3c f5 c3 83 be
       0.01901443 0.0 0.022422682 -0.2573544
0000f0 ce a6 76 be 1d f4 79 3e 46 f9 2e 3b fc 89 3a 3e
       -0.24087068 0.24409528 0.0026698872 0.182167

sequential_1/dense_1_2/BiasAdd/ReadVariableOp f4 [128]
000000 fd 60 80 3d a9 d3 89 3e b4 37 1e bd 3f 34 be 3e
       0.06268499 0.26919296 -0.03862734 0.37149236
000010 2e 94 df bd 23 a3 97 3d 5f 2d 35 be cd 9a 2d 3e
       -0.10916935 0.07404163 -0.17693089 0.16953583
000020 61 95 57 bb b9 86 06 bc 8b 44 e9 bb 80 96 29 3e
       -0.0032895433 -0.008210831 -0.0071187667 0.16561317
000030 4d ed 95 bd 96 6c 50 be 06 7f 72 bc df 97 9e 3e
       -0.07320652 -0.20353922 -0.014800793 0.30975243
000040 d2 ed 6e bd 52 be a9 bb 22 47 c2 3e b5 38 09 be
       -0.058332272 -0.0051801587 0.37944895 -0.13400538
000050 bd e0 cc bb 91 d6 10 3e 96 00 44 be 10 83 3e 3e
       -0.006252377 0.1414435 -0.19140849 0.18604684
000060 43 c9 a2 bc f3 ab 92 3b 67 d3 a7 bc da 5f 67 3e
       -0.01987136 0.0044760644 -0.020486547 0.22595158
000070 14 e6 c9 3d 48 8d 67 3e 4c 42 36 bc 66 42 87 3e
       0.09858337 0.22612488 -0.011124205 0.26417845
000080 1f e5 c3 bd 50 fb 83 be 62 84 28 bd 6b e8 58 be
       -0.09565186 -0.25777674 -0.041141875 -0.2118241
000090 02 85 3d 3e 4f 62 1b 3e 71 9e c3 bb 61 95 e5 bd
       0.1850777 0.1517422 -0.0059698154 -0.112101324
0000a0 d7 10 2a bc e3 82 e5 3b 89 0c 20 be 92 bb 2e 3c
       -0.0103799915 0.0070041283 -0.15629782 0.010664837
0000b0 c0 ed 0a bc 2a b4 fc bb cd 58 14 3d b8 dd 2a bc
       -0.008479536 -0.007711907 0.0362175 -0.010428838
0000c0 dd 01 69 3e 59 4d a2 bd 83 c0 dd bb 03 84 b3 3e
       0.22754617 -0.07924909 -0.006767334 0.35061654
0000d0 9a 60 82 be 15 00 95 3e ef e3 30 bc d1 d6 31 26
       -0.25464326 0.29101625 -0.010796531 6.170034e-16
0000e0 a0 6c 14 3e 4f 6c b5 3e ac b0 1a 3e 88 1c f8 bb
       0.14494562 0.35434195 0.15106457 -0.0075717606
0000f0 40 4b 0b bc c2 0b 52 3e 5d 09 be bc 19 87 0a bc
       -0.008501828 0.20512298 -0.023197824 -0.008455061
000100 f2 2f a0 3e 4f dd d7 3d 69 11 03 bc 49 26 a9 bd
       0.3128658 0.10540258 -0.007999756 -0.082592554
000110 3b d5 91 3e a1 7a 18 bc cb 0a 0b be f7 3b 53 3e
       0.28482994 -0.009306581 -0.13578336 0.20628344
000120 d0 df ab bc 8b d1 4a bc 16 e1 79 bd e5 17 3e 3e
       -0.020980746 -0.0123790605 -0.061005674 0.18563803
000130 a2 2d a7 bb dc d4 c5 3e 0b 30 a7 bc ac 4a c5 3e
       -0.0051018754 0.3863896 -0.02040865 0.38533533
000140 2f c4 c3 3e 06 2a a2 bd cc 2a a4 bc 00 00 00 00
       0.38235614 -0.079181716 -0.020039938 0.0
000150 95 da a9 3e fb 1f aa 3e 80 ad 93 3e 10 65 a1 3e
       0.33174577 0.33227524 0.28843307 0.31522417
000160 2a 40 1b 3d 0b 68 02 bc 0f 27 8b 3d cb 24 45 be
       0.03790299 -0.007959376 0.06794559 -0.19252317
000170 c0 05 f0 bb 35 c4 9a 3c 6d 4d c2 bc eb 1c b5 3e
       -0.007324904 0.018892387 -0.02371856 0.35373625
000180 1b 15 44 3e 78 da ad bb 52 98 5a bc 35 8d 62 bb
       0.19148676 -0.0053055845 -0.01334198 -0.003456903
000190 00 00 00 00 d5 df 26 bc 46 ed 02 be d4 7e 60 3d
       0.0 -0.010185202 -0.12785825 0.054808453
0001a0 ab cd 32 bd 0e 8c c4 bb 13 74 82 3e 05 87 fc 3d
       -0.04365317 -0.005998141 0.25479183 0.123304404
0001b0 7d ba 8f 3e 36 62 44 bc b5 69 84 bb 5e 5e 56 3e
       0.28071967 -0.011986306 -0.0040409216 0.20934436
0001c0 aa 67 76 be d3 aa ae bd fc 7b 04 be 17 1b 79 bc
       -0.24062982 -0.08528676 -0.12937921 -0.015204213
0001d0 15 b5 cb bb d9 24 97 3e b3 29 f9 bd 57 26 c9 3e
       -0.006216655 0.295203 -0.121661566 0.39287063
0001e0 00 00 00 00 c0 20 5f be 1f e1 81 3e 1c 86 b3 3e
       0.0 -0.21789837 0.25367066 0.35063255
0001f0 27 c3 ab 3d ba 26 51 bc 26 1b 96 3e 94 e0 96 bd
       0.08386832 -0.012765581 0.29317588 -0.07367054

sequential_1/dense_1/BiasAdd/ReadVariableOp f4 [256]
000000 d5 ad 62 bc 90 7e f4 3d 1a 36 b0 3e 94 76 a5 3e
       -0.01383539 0.119382024 0.34416276 0.3231703
000010 7a fa 5e 3e a3 fd 60 3d 0b 23 a8 3e 01 d1 9f be
       0.21775237 0.054929387 0.32839236 -0.31214145
000020 ce f3 b0 be fe 16 a0 3e 5a e0 4a 3e 97 4d 21 3d
       -0.34561008 0.31267542 0.19812146 0.039380636
000030 e4 c6 bb be e1 c5 2d 3e ab cb 0f 3e 3c 57 32 be
       -0.3667518 0.16970016 0.14042537 -0.1741609
000040 d8 33 7c 3d 05 c7 58 3e f2 e8 ad 3e 01 06 b9 3e
       0.06157288 0.2116967 0.33966786 0.36137393
000050 a0 2a 10 3e dd 75 a3 be 2d 60 b1 3e e5 dc 9d 3e
       0.1407876 -0.3192586 0.3464369 0.30832592
000060 7e c9 78 3e 88 a1 6f 3e 69 49 65 3e 6a b6 d4 3d
       0.24295613 0.23401463 0.22391285 0.10386355
000070 07 c7 0d 3e 7e 0b 2c 3e 09 fc fa bd 35 67 c0 3e
       0.13845454 0.16801259 -0.12255103 0.3757874
000080 46 7a 84 3e 5f e3 da 3e 5f 53 2a 3e 9c 0c 93 3e
       0.25874537 0.42751595 0.16633366 0.28720558
000090 a7 3c b9 be c4 80 88 3e f7 b7 95 be bb fc bb be
       -0.36179087 0.2666074 -0.29241917 -0.36716256
0000a0 9d 42 74 3e 48 a0 9f 3e cf d5 57 be ab 48 7d 3e
       0.23853536 0.31176972 -0.21077655 0.24734752
0000b0 23 83 aa be 51 d1 46 3e 02 c7 e0 3d 0b e1 29 3d
       -0.33303174 0.19415785 0.10975458 0.041474383
0000c0 b7 2d 92 be 12 4b 57 3e 3e 4f 93 3e e9 d3 74 3e
       -0.28550503 0.21024731 0.28771394 0.23908962
0000d0 77 7d 4c 3e 6c 87 a5 3e c8 d7 d5 3d 00 04 c9 3e
       0.19969736 0.3232988 0.10441548 0.39260864
0000e0 c7 3e 5b be 58 00 9f 3e 89 f9 62 3e fc 09 13 3e
       -0.21410666 0.3105495 0.22165503 0.14359277
0000f0 9e f8 d3 3e 81 bd 91 be 3f 11 8b 3e 96 28 d0 3e
       0.41400617 -0.28464893 0.27161595 0.40655965
000100 84 62 eb bb 0f 30 d2 3e 08 f2 a2 be ab 8a 38 3e
       -0.007183375 0.4105229 -0.3182528 0.18021648
000110 93 78 8c bd 25 3a ad be 6d 10 cd 3e a9 ec c3 3e
       -0.06858935 -0.33833423 0.40051594 0.38266495
000120 7d 19 9a 3e d6 81 11 3e e5 ba 62 3e 57 1e 62 3e
       0.3009757 0.14209685 0.22141607 0.22081886
000130 4a ce ac be c3 18 7a bd 5f fb 58 3e d6 ae 8c 3d
       -0.33751136 -0.06105877 0.2118964 0.06869285
000140 ce 5f 6c 3e 1b b4 c6 3e 25 4b 0a 3e ee ff 80 3e
       0.23083422 0.38809285 0.13505228 0.2519526
000150 f5 52 ad 3e b1 68 be 3e 91 b1 b1 be 35 4a d4 3e
       0.33852354 0.37189248 -0.34705785 0.41462865
000160 32 12 93 3e e8 54 c8 3e 61 2c 68 be 67 60 71 3e
       0.2872482 0.39127278 -0.22673179 0.23571931
000170 c3 a6 c6 be a7 0b 47 3e b7 cc a0 be 69 b9 d5 3e
       -0.38799104 0.19438039 -0.31406185 0.4174302
000180 ed 50 88 3e 02 d3 b4 be 38 1e 66 3e 24 34 f7 bb
       0.2662424 -0.35317236 0.22472465 -0.0075440574
000190 fc 08 db 3e 01 82 1c 3e c3 21 64 3e 27 44 78 3e
       0.42780292 0.15283968 0.22278504 0.24244748
0001a0 53 4d 88 bd 14 f9 1d be 6e ec a9 3e 1c c7 1e 3e
       -0.066553734 -0.15427047 0.33188194 0.15505642
0001b0 7c 7a a0 be 46 29 99 be ec 9f 1b 3e 9b 0d 63 3e
       -0.31343448 -0.29914302 0.15197724 0.22173159
0001c0 c1 4b 38 3e 1a da 81 3b c4 6c 5c 3e fe 9f 02 3e
       0.17997648 0.0039627673 0.21525866 0.12756345
0001d0 cf 64 77 3e b6 3a f7 3d 17 15 c8 3e 87 49 9b 3e
       0.24159549 0.12071745 0.3907859 0.30329534
0001e0 12 84 a1 be 43 74 ed bc a3 eb ae be a8 af 50 be
       -0.31546074 -0.028986102 -0.34164152 -0.20379508
0001f0 e5 b7 38 be 0a cc 89 3e 27 6d a9 be 2a 39 dc 3e
       -0.180389 0.26913482 -0.3309109 0.43012363
000200 89 b8 77 3e 20 40 26 3c a5 8d 7e 3e 30 d7 53 3e
       0.24191488 0.0101471245 0.2485872 0.20687556
000210 d7 43 b9 be 9d 6f af be 9d fc 8b 3e 70 b8 9a be
       -0.3618457 -0.34264842 0.27341166 -0.3021884
000220 24 8b 8e 3e 08 b5 bc 3e 40 5a 2c 3e d8 42 17 3e
       0.2784053 0.36856866 0.16831303 0.14771593
000230 da b2 b2 be 7a 5e 94 3e 16 e4 8a be 80 4d a8 3e
       -0.34902078 0.2897833 -0.2712714 0.32871628
000240 50 c2 d3 3e 79 0e 32 3e 8f 4b dd 3e b3 70 81 3e
       0.41359186 0.17388333 0.4322171 0.25281295
000250 16 70 41 3e 96 ec c9 3e df 1e bd 3e 8b 6d 03 3e
       0.18890414 0.39438313 0.36937615 0.12834756
000260 9d 05 6c 3e 15 01 47 3e 77 d6 e8 3e 56 16 80 3e
       0.23049016 0.19434007 0.45476124 0.2501704
000270 7d 9b 93 3e 2e c4 9f 3e e5 73 a1 3e 80 8f a7 3e
       0.28829566 0.3120436 0.31533733 0.3272667
000280 be 2a e5 3e e4 d8 d7 3e bc aa 59 3e 55 97 27 3e
       0.44759172 0.42157662 0.21256536 0.16366322
000290 06 45 7a 3d f4 6c 5c 3e c3 1e b3 be c5 be 87 3e
       0.061100982 0.21525937 -0.34984407 0.26512733
0002a0 1e c3 97 3e 5c d1 ba 3e a1 b4 86 3e 8f 53 78 3e
       0.2964105 0.36487854 0.26309684 0.24250625
0002b0 4e ca b9 3e 40 17 87 be 0f d4 56 be 38 70 a2 3e
       0.3628716 -0.26384926 -0.20979331 0.3172624
0002c0 b5 89 cc 3e f9 6c 9e be d6 53 d1 3e 16 45 7e be
       0.39948812 -0.30942515 0.40884274 -0.24831042
0002d0 7c d9 df 3e 14 15 cb 3e 65 ee b5 3e b9 68 39 be
       0.43720615 0.3966452 0.35533443 -0.18106355
0002e0 43 06 c1 3e 7b c3 09 3e 0a 0f 19 be 8d 57 d6 3e
       0.3770009 0.13453476 -0.14947143 0.4186367
0002f0 21 51 e0 3e c6 3e a0 3e e2 82 a1 be e7 ef 82 3e
       0.43811896 0.31297892 -0.31545168 0.25573656
000300 80 67 29 3d d6 3a b5 be 9f f1 f0 3e 66 4c 9d 3e
       0.04135847 -0.3539645 0.47059342 0.3072235
000310 c5 2a 55 3e b5 ca 8e 3e 43 82 80 3e 0d 8c d6 3e
       0.20817097 0.27889028 0.25099382 0.41903725
000320 c3 34 25 3e ec 66 de 3e 95 67 1f be 25 f1 b6 3e
       0.16133408 0.43437898 -0.15566857 0.35730854
000330 52 b4 2c 3e f0 42 9e 3e 6c 0a b8 3e f5 ac f6 bd
       0.16865662 0.30910444 0.3594545 -0.12044708
000340 64 24 89 be e7 5a 61 3e 2f c0 18 3e 12 9e 74 3e
       -0.26785576 0.22007333 0.14917062 0.23888424
000350 9e 52 24 3e 23 33 a6 3e 1e cd aa be 52 9e 51 3e
       0.16047141 0.3246089 -0.33359617 0.2047055
000360 93 00 ab be bb fe 89 3e 25 0d 12 3e 72 c0 d7 3e
       -0.33398876 0.26952156 0.14262827 0.42139012
000370 80 16 51 3e e1 61 b9 be 3f 52 89 3e 9d f7 f8 bd
       0.2041874 -0.36207488 0.2682056 -0.121566035
000380 4c 21 03 bc 44 bc e5 3d c0 cc 0b 3e c8 39 66 be
       -0.008003544 0.112175494 0.13652325 -0.2248298
000390 1d bd 90 be 8d 73 89 3e 83 5f 81 3e ec a7 83 3e
       -0.28269282 0.2684597 0.25268182 0.25714052
0003a0 4f 42 7c 3e 43 c0 ad 3e bc c1 c2 3e 88 af 94 3e
       0.2463467 0.33935747 0.38038433 0.2904017
0003b0 6b e3 80 3e 5e 39 d0 3e 27 ba ce 3d 88 ba e3 3e
       0.25173506 0.40668768 0.100940995 0.4447825
0003c0 c8 7d 8e bb 11 90 5f 3e 61 2e 16 be b5 29 f3 3e
       -0.0043484904 0.218323 -0.1466613 0.47492757
0003d0 ba 04 a4 3e 10 0e 11 3e 02 6a 31 3e ab 38 69 bd
       0.32034856 0.1416552 0.17325595 -0.05693881
0003e0 4d d0 ba 3d 65 cf 6a be 56 5b b8 3e 6f 78 68 be
       0.091217615 -0.22930677 0.36007184 -0.22702192
0003f0 40 69 99 be 5f 24 88 be a3 2e 88 3e 66 ca 86 be
       -0.29963112 -0.2659025 0.2659808 -0.26326293
